…
2  moderate non proliferative retinopathy  0  1  0  0  0  0  0  1
3       mild nonproliferative retinopathy  0  1  0  0  0  0  0  1
4  moderate non proliferative retinopathy  0  1  0  0  0  0  0  0

                                            filepath labels  \
0  ../input/ocular-disease-recognition-odir5k/ODI...  ['N']
1  ../input/ocular-disease-recognition-odir5k/ODI...  ['N']
2  ../input/ocular-disease-recognition-odir5k/ODI...  ['D']
3  ../input/ocular-disease-recognition-odir5k/ODI...  ['D']
4  ../input/ocular-disease-recognition-odir5k/ODI...  ['D']

                     target     filename
0  [1, 0, 0, 0, 0, 0, 0, 0]  0_right.jpg
1  [1, 0, 0, 0, 0, 0, 0, 0]  1_right.jpg
2  [0, 1, 0, 0, 0, 0, 0, 0]  2_right.jpg
3  [0, 1, 0, 0, 0, 0, 0, 0]  4_right.jpg
4  [0, 1, 0, 0, 0, 0, 0, 0]  5_right.jpg
add file paths for images
In [9]:
print(df.head())
print("Columns in DataFrame:", df.columns)
   ID  Patient Age Patient Sex Left-Fundus Right-Fundus  \
0   0           69      Female  0_left.jpg  0_right.jpg
1   1           57        Male  1_left.jpg  1_right.jpg
2   2           42        Male  2_left.jpg  2_right.jpg
3   4           53        Male  4_left.jpg  4_right.jpg
4   5           50      Female  5_left.jpg  5_right.jpg
…
plt.title('Training and Testing Loss')
plt.show()
WARNING:absl:At this time, the v2.11+ optimizer `tf.keras.optimizers.Adam` runs
slowly on M1/M2 Macs, please use the legacy Keras optimizer instead, located at
`tf.keras.optimizers.legacy.Adam`.
WARNING:absl:`lr` is deprecated in Keras optimizer, please use `learning_rate`
or use the legacy optimizer, e.g.,tf.keras.optimizers.legacy.Adam.
Model: "sequential_1"
_________________________________________________________________
 Layer (type)                Output Shape              Param #
=================================================================
 resnet101 (Functional)      (None, 7, 7, 2048)        42658176

 flatten_1 (Flatten)         (None, 100352)            0

 dense_2 (Dense)             (None, 256)               25690368

 dropout_1 (Dropout)         (None, 256)               0

 dense_3 (Dense)             (None, 1)                 257

=================================================================
Total params: 68348801 (260.73 MB)
Trainable params: 68243457 (260.33 MB)
Non-trainable params: 105344 (411.50 KB)
_________________________________________________________________
Epoch 1/5
30/30 [==============================] - 227s 7s/step - loss: 7.4841 -
accuracy: 0.7466 - val_loss: 680765489152.0000 - val_accuracy: 0.4603
Epoch 2/5
…
234698864/234698864 [==============================] - 5s 0us/step
WARNING:absl:At this time, the v2.11+ optimizer `tf.keras.optimizers.Adam` runs
slowly on M1/M2 Macs, please use the legacy Keras optimizer instead, located at
`tf.keras.optimizers.legacy.Adam`.
WARNING:absl:`lr` is deprecated in Keras optimizer, please use `learning_rate`
or use the legacy optimizer, e.g.,tf.keras.optimizers.legacy.Adam.
Model: "sequential_2"
_________________________________________________________________
 Layer (type)                Output Shape              Param #
=================================================================
 resnet152 (Functional)      (None, 7, 7, 2048)        58370944

 flatten_2 (Flatten)         (None, 100352)            0

 dense_4 (Dense)             (None, 256)               25690368

 dropout_2 (Dropout)         (None, 256)               0

 dense_5 (Dense)             (None, 1)                 257

=================================================================
Total params: 84061569 (320.67 MB)
Trainable params: 83910145 (320.09 MB)
Non-trainable params: 151424 (591.50 KB)
_________________________________________________________________
Epoch 1/10
30/30 [==============================] - 428s 14s/step - loss: 6.3439 -
accuracy: 0.7026 - val_loss: 11248619206213632.0000 - val_accuracy: 0.5397
…
51877672/51877672 [==============================] - 2s 0us/step
WARNING:absl:At this time, the v2.11+ optimizer `tf.keras.optimizers.Adam` runs
slowly on M1/M2 Macs, please use the legacy Keras optimizer instead, located at
`tf.keras.optimizers.legacy.Adam`.
WARNING:absl:`lr` is deprecated in Keras optimizer, please use `learning_rate`
or use the legacy optimizer, e.g.,tf.keras.optimizers.legacy.Adam.
Model: "sequential_3"
_________________________________________________________________
 Layer (type)                Output Shape              Param #
=================================================================
 densenet169 (Functional)    (None, 7, 7, 1664)        12642880

 flatten_3 (Flatten)         (None, 81536)             0

 dense_6 (Dense)             (None, 256)               20873472

 dropout_3 (Dropout)         (None, 256)               0

 dense_7 (Dense)             (None, 1)                 257

=================================================================
Total params: 33516609 (127.86 MB)
Trainable params: 33358209 (127.25 MB)
Non-trainable params: 158400 (618.75 KB)
_________________________________________________________________
Epoch 1/7
30/30 [==============================] - 203s 6s/step - loss: 4.0113 -
accuracy: 0.8168 - val_loss: 849175.9375 - val_accuracy: 0.5397
Epoch 2/7
…
29084464/29084464 [==============================] - 1s 0us/step
WARNING:absl:At this time, the v2.11+ optimizer `tf.keras.optimizers.Adam` runs
slowly on M1/M2 Macs, please use the legacy Keras optimizer instead, located at
`tf.keras.optimizers.legacy.Adam`.
WARNING:absl:`lr` is deprecated in Keras optimizer, please use `learning_rate`
or use the legacy optimizer, e.g.,tf.keras.optimizers.legacy.Adam.
Model: "sequential_4"
_________________________________________________________________
 Layer (type)                Output Shape              Param #
=================================================================
 densenet121 (Functional)    (None, 7, 7, 1024)        7037504

 flatten_4 (Flatten)         (None, 50176)             0

 dense_8 (Dense)             (None, 256)               12845312

 dropout_4 (Dropout)         (None, 256)               0

 dense_9 (Dense)             (None, 1)                 257

=================================================================
Total params: 19883073 (75.85 MB)
Trainable params: 19799425 (75.53 MB)
Non-trainable params: 83648 (326.75 KB)
_________________________________________________________________
Epoch 1/10
30/30 [==============================] - 148s 5s/step - loss: 3.7672 -
accuracy: 0.8147 - val_loss: 413.3214 - val_accuracy: 0.6527
Epoch 2/10
30/30 [==============================] - 138s 5s/step - loss: 0.6307 -
…
